Model: "sequential_2"
┏━━━━━━━━━━━━━━━━━━━━━━━━━━━━━━━━━┳━━━━━━━━━━━━━━━━━━━━━━━━┳━━━━━━━━━━━━━━━┓
┃ Layer (type)                    ┃ Output Shape           ┃       Param # ┃
┡━━━━━━━━━━━━━━━━━━━━━━━━━━━━━━━━━╇━━━━━━━━━━━━━━━━━━━━━━━━╇━━━━━━━━━━━━━━━┩
│ conv2d_6 (Conv2D)               │ (None, 26, 26, 32)     │           320 │
├─────────────────────────────────┼────────────────────────┼───────────────┤
│ conv2d_7 (Conv2D)               │ (None, 24, 24, 32)     │         9,248 │
├─────────────────────────────────┼────────────────────────┼───────────────┤
│ conv2d_8 (Conv2D)               │ (None, 22, 22, 32)     │         9,248 │
├─────────────────────────────────┼────────────────────────┼───────────────┤
│ global_average_pooling2d_2      │ (None, 32)             │             0 │
│ (GlobalAveragePooling2D)        │                        │               │
├─────────────────────────────────┼────────────────────────┼───────────────┤
│ dense_2 (Dense)                 │ (None, 10)             │           330 │
└─────────────────────────────────┴────────────────────────┴───────────────┘
 Total params: 19,146 (74.79 KB)
 Trainable params: 19,146 (74.79 KB)
 Non-trainable params: 0 (0.00 B)
